Stats for our data
========================================

Model architecture
========================================
----------------------------------------------------------------
        Layer (type)               Output Shape         Param #
================================================================
            Conv2d-1            [-1, 16, 37, 8]              80
            Conv2d-2            [-1, 32, 19, 5]           3,104
            Linear-3                   [-1, 64]          77,888
            Linear-4                   [-1, 32]           2,080
            Linear-5                   [-1, 20]             660
================================================================
Total params: 83,812
Trainable params: 83,812
Non-trainable params: 0
----------------------------------------------------------------
Input size (MB): 0.01
Forward/backward pass size (MB): 0.06
Params size (MB): 0.32
Estimated Total Size (MB): 0.39
----------------------------------------------------------------


The Results:
==================================================
…
