Stats for our data
========================================

Model architecture
========================================
----------------------------------------------------------------
        Layer (type)               Output Shape         Param #
================================================================
            Conv2d-1           [-1, 16, 56, 11]              80
            Conv2d-2            [-1, 32, 29, 6]           2,080
            Linear-3                   [-1, 64]         237,632
            Linear-4                   [-1, 32]           2,080
            Linear-5                   [-1, 20]             660
================================================================
Total params: 242,532
Trainable params: 242,532
Non-trainable params: 0
----------------------------------------------------------------
Input size (MB): 0.01
Forward/backward pass size (MB): 0.12
Params size (MB): 0.93
Estimated Total Size (MB): 1.05
----------------------------------------------------------------


The Results:
==================================================
…
