Stats for our data
========================================

Model architecture
========================================
----------------------------------------------------------------
        Layer (type)               Output Shape         Param #
================================================================
            Conv2d-1           [-1, 16, 56, 11]              80
            Conv2d-2            [-1, 32, 28, 6]           4,640
            Conv2d-3            [-1, 64, 14, 3]          18,496
            Linear-4                   [-1, 64]         172,096
            Linear-5                   [-1, 32]           2,080
            Linear-6                    [-1, 1]              33
================================================================
Total params: 197,425
Trainable params: 197,425
Non-trainable params: 0
----------------------------------------------------------------
Input size (MB): 0.01
Forward/backward pass size (MB): 0.14
Params size (MB): 0.75
Estimated Total Size (MB): 0.90
----------------------------------------------------------------


The Results:
==================================================
…
